artefact_detector/default_model.ckpt (torch, 371607 bytes, 15 tensors)

model.0.weight f4 [16, 3, 9, 9]
00000000: d1d5 143c 6168 fe3c f691 0d3d 1c43 be3c
00000010: ab4b 0d3c 0824 53b9 fbf4 23bd 161d 3d3d
00000020: 9e9e 5ebd 4aa6 383d f3b6 73bd 6bb1 e6bc
00000030: fdbd 48bd 7a7f 50bd 85e7 7cbc d6ca 843d
00000040: 70d2 7b3d 7572 3c3c 748b aa3c 435b 793d
00000050: 3aed 92bc 2303 9b3c cf71 e2ba 9e37 ecbc
00000060: cccf b93b b063 e7bc 7016 483d 38ad 6f3d
00000070: ca40 33bd 701a f13c fae7 513c 4977 413d
00000080: fb4c b6bb 3053 3bbc 41a7 513b 8a0a f43c
00000090: 4d43 883d 8655 42bd 0c26 1f3d cfef 2b3d
000000a0: 0d50 613d 810a 9bbc 73ec 563c 4873 a7bc
000000b0: 96b1 d3bc 55a2 aa3c 45ca 953c b5ea 33bd
000000c0: 337c fa3a 6700 4bbd aa48 11bc ed79 d2ba
000000d0: 416f 87bb 5e6b 47bd 5e35 2f3c ac7a fcbc
000000e0: a53a cb3c f857 f038 3a0d a3ba 9936 13bd
000000f0: 3ad9 11bc 41ae 34bd 0df5 6bbd a6d5 42bb
00000100: 7efb 3c3d 07c7 5f3d ae56 78bd 3606 8a3c
00000110: 07e9 cbbc a20e 193d 1de2 45bb e82a 5abc
00000120: 1bae abbc a2d0 acbc 144a 82bc ad72 38bd
00000130: 80d1 0d3c 47d3 1b3d fcf0 5a3d 5d9f b33c
00000140: a939 a93b 7840 e43a 7d6c 1ebd 0a5a f73c
00000150: 0619 61bd dd0d 5e3d d6bb 253d 1742 403d
00000160: df00 c13b e546 ecbc eb04 3f3b 5eaa 89bd
00000170: 00ec 063c 4b2d b73c fe45 c2bc 9a3c f4bc
00000180: 77f1 103d d98d 453d 2a7b 4fbd 05bb af3b
00000190: 6cc9 2c3d 6ae3 c73c 646a a33c 3dac 86bd
000001a0: fe93 e1bc 3bee 31bd d33c 26bc 53db 2f3d
000001b0: 683c c8bc 8572 10bd c172 c9bb 12e5 183d
000001c0: c3ab 493d 6cb0 11bd 5958 30bc c020 7f3b
000001d0: ad1b ad3b 1172 8fbc 09a9 293d 1b28 f9bc
000001e0: 16f1 26bd d6aa ca3c e74c db3b 4e91 593d
000001f0: 6524 e9bc 27b2 913c 0187 1fbd 02c0 193d
00000200: 99fc 80bd b206 0ebd 7e34 213d 4b2d 48bd
00000210: a78b 11bc e444 8cbc b395 ac3a 078e 243d
00000220: f768 c23a 78de ac3c 73e4 1fbd f403 88bd
00000230: d3c1 85bc 1cba 51bd 1bc2 77bd 804d f6bb
00000240: 3dbc 1c3d 081f bd3c 1767 183d 9c8a 3a3c
00000250: d6fc 433d e007 5a3d 7017 0d3b b769 6b3b
00000260: 6dde 92bc b29d 0abd 39ee d73c 42eb 9fbc
00000270: a85a ce3c 15b0 2abd 5b93 293d 00e3 aa3c
00000280: d651 5abd b4ef 4fbd 171f 36bd 82e5 2c3d
00000290: 1cba 853d cbc9 22bc 2daf 5f3d cef8 7d3c
000002a0: 2de5 3dbd 65c3 8c3d f9c3 4fbd 8304 233d
000002b0: 7cea 883d 1ff1 4b3d 8e89 8d3c 497c 45bd
000002c0: 0375 15bd 31a6 26bc d84e 8dbc c7ce 4f3b
000002d0: 146a 043d 212f 63bc bc3b 703d 0d7c 4f3d
000002e0: eaf1 78bc 74cf 083d ecf5 54bd b5cf 4e3d
000002f0: 26cb 073d 717f 0cbd 2353 7c3b 4498 7b3c
00000300: ea31 46bd 78b4 abbc 63c6 853c 65ad 893d
00000310: 938d fcbb 1af0 acbc 78cc 773d 4dd3 563d
00000320: e3bf 7b3d 92d2 5bbc e9e0 7f3d 2ab1 543d
00000330: dc22 df3b 9b25 82bc 1b93 dc3c b058 c83b
00000340: 7ce8 583c b683 5fbd a11c 5e3d 077f dc3b
00000350: 05f9 cb3c 5efc e2bc 07cd e0bb d36d 2d3d
00000360: 646a 813d 0b12 bfbc 277a a5bc 1e6f 433d
00000370: 2810 3a3d e889 bebc 3e49 5b3d 95d6 313c
00000380: 8072 20bc c684 903a e044 f33c 4304 fd3c
00000390: 329d dc3c 7f8b c4bc 0afd 5abd 6585 3d3d
000003a0: ea25 5c3d b5b5 ba3c dc16 b0bc 3bbe 3abd
000003b0: 720b 543d d9d5 cbbc 7083 b93b 8595 e73a
000003c0: 05ec 33bd d6ed 653d ed12 473d fdf8 9abc
000003d0: 5e2e 8dbd 962f 2f3b 4e01 d13c 53ef eabc
000003e0: 7cc6 583c 49ae 6d3a 8ed0 35bd cf23 91bc
000003f0: 4c2c f2bb 5316 033d 10a6 4abd b2e4 bf3c
0.009084181 0.031055631 0.034563027 0.02322536 0.008623998 -0.00020135951 -0.040028553 0.046170317
-0.054350488 0.04508046 -0.059500646 -0.028160771 -0.049009312 -0.05090282 -0.015436058 0.064840004
0.061479986 0.011501898 0.02081845 0.06087805 -0.017935384 0.018922394 -0.0017276349 -0.028835114
0.0056705233 -0.028245777 0.048849523 0.058514804 -0.04376296 0.029431552 0.012811655 0.0472329
-0.005563376 -0.011433408 0.003199056 0.029790182 0.066534616 -0.047444843 0.038854644 0.041976746
0.055007983 -0.018925907 0.013117897 -0.020440713 -0.025841516 0.02082936 0.018284926 -0.043925006
0.00191105 -0.04956093 -0.008867422 -0.0016058065 -0.0041331355 -0.048686378 0.010693876 -0.030820213
0.024808237 0.00011460477 -0.0012439855 -0.03594074 -0.0089018885 -0.044111494 -0.057606746 -0.0029729395
0.04613828 0.054633167 -0.06062954 0.016848665 -0.02489139 0.03736747 -0.0030194588 -0.013315894
-0.020957043 -0.021095578 -0.015904464 -0.04503124 0.008655906 0.038043287 0.053452477 0.021926576
0.0051643443 0.0017414233 -0.03867768 0.030194301 -0.054955505 0.05421244 0.040462337 0.04693803
0.0058899964 -0.028842399 0.0029147218 -0.06721948 0.008234978 0.022360465 -0.023715016 -0.029814053
0.03538653 0.04823098 -0.050654568 0.0053628706 0.04218428 0.024400432 0.019948192 -0.065758206
-0.027536388 -0.043440085 -0.010146338 0.042933773 -0.024442866 -0.035265464 -0.006147713 0.037327833
0.04923607 -0.03556864 -0.010763251 0.0038929433 0.00528284 -0.017510446 0.04142097 -0.030414632
-0.04075726 0.024739664 0.006692517 0.05311709 -0.028459737 0.017785145 -0.03894711 0.03753663
-0.06298179 -0.034674354 0.0393567 -0.04887132 -0.008883393 -0.017122693 0.0013167172 0.04017451
0.0014832307 0.021102175 -0.039036226 -0.06641379 -0.016327774 -0.05120288 -0.060487848 -0.007516563
0.038265456 0.023086086 0.03720769 0.011385586 0.047848545 0.053230166 0.0021528862 0.0035921165
-0.017928327 -0.033841796 0.02635871 -0.01952136 0.025189713 -0.04167183 0.041400295 0.020860195
-0.0533007 -0.050765708 -0.044463243 0.042211063 0.06529638 -0.0099358065 0.05461042 0.015501214
-0.046361137 0.06873206 -0.050724003 0.039799225 0.06685349 0.049790498 0.017277505 -0.04821423
-0.036488544 -0.010171459 -0.01724951 0.0031708942 0.032327726 -0.013866217 0.058650717 0.050655413
-0.015194396 0.033400968 -0.051992342 0.050491054 0.03315272 -0.034301225 0.0038501702 0.015356127
-0.048387446 -0.020960078 0.01632995 0.067225255 -0.0077073066 -0.021110583 0.06049773 0.052447606
0.061462294 -0.013416903 0.06247035 0.05192677 0.0068095755 -0.015887072 0.026925614 0.006114088
0.013239022 -0.05456897 0.05422652 0.00672901 0.024899015 -0.027708229 -0.0068603787 0.042341065
0.063191205 -0.023324033 -0.020199848 0.04771339 0.045425564 -0.023259118 0.053536646 0.010854383
-0.009792924 0.0011025898 0.029695928 0.030885821 0.026930425 -0.023992298 -0.053463973 0.046269793
0.053747095 0.022791723 -0.021495275 -0.045591574 0.051768728 -0.024882244 0.0056614205 0.0017668462
-0.043926258 0.05613502 0.048602033 -0.018917555 -0.068936095 0.0026731244 0.025513317 -0.028678572
0.013230916 0.0009066803 -0.044388346 -0.01771727 -0.0073905345 0.032003712 -0.049474776 0.02342448

model.0.bias f4 [16]
00000000: d36a 613d 6f1e c43d fbd6 56bc 3307 763c
00000010: 5426 c33c 2ca9 663c 0dfe 87bd 3e35 b439
00000020: 5f39 783d 20c4 7b3c b812 2fbc 7ef7 053d
00000030: c4a8 cfbb e693 73bd b738 633c 5cd4 573d
0.055033516 0.09576117 -0.013112779 0.015016365 0.023821987 0.01407842 -0.06640253 0.00034371944
0.06060159 0.015366584 -0.010685615 0.03270673 -0.006337257 -0.05946722 0.013868502 0.052692756

model.3.weight f4 [64, 16, 5, 5]
00000000: 4521 47bd 6032 29bd 8706 0ebb f887 363d
00000010: a7bd 05bd f14e ef3c 050e b4bc 7d95 50bd
00000020: 1c0c 143d a2d4 6b3a 4b68 303d a362 fcbc
00000030: 035e 41bd 7505 e43c 34f5 2a3c 308a 32bd
00000040: 83ca 73bb 1daf 993c ef98 debc 9d89 d2bb
00000050: 416b 603c 7b71 89bc 8cd6 b6bc 815a 9c3c
00000060: 114a 28bd 777c a7bc ebec 18bd 786b 283d
00000070: 5f8b b6bc 59e9 46bc 526e 9ebc 1ee7 b33c
00000080: f02f 5e3c d497 78bc 564f 873c 5a29 2a3d
00000090: a119 213c 7da7 c63b 0dc2 b2bc 4052 bc3c
000000a0: 0f34 253d 213a acbc 1671 18bd 0f81 033d
000000b0: 5f11 04bd 1cfc 393d bacf 9abc fd2c 023d
000000c0: 1571 2abd c01c 073b fa87 2dbd e422 c43c
000000d0: 3496 333d e111 f53b 3ad5 50bd 7feb 903c
000000e0: c712 28bd 9e55 3ebd d463 6fbb 1e17 35bd
000000f0: a0b7 403d 926f 7b3b 9bc4 a43c 5fb9 d0bc
00000100: b954 ccbc ae4a a03c a097 933c 1fdc f53c
00000110: 357a c73c 584c 02bd f9d2 1cbd 4ca4 16bd
00000120: 39a5 fbbc 3220 223d 9fc5 e53c bbf8 19bd
00000130: dd64 1c3d fa77 103d 3674 493b 2827 45bd
00000140: c953 e43b fa01 bb3c b4da adba d0b0 e03c
00000150: c1f8 963c 725a cdbc 7d87 ffbc 0239 8fbc
00000160: 63ac 51bc e91b c7bc 9474 2a3d 0e4f 0fbd
00000170: 866c 4cbd c545 06bd c6aa 043d 3b10 95bc
00000180: 5422 a7bc 5a00 25bc 73b5 f23c 5bfa 17bd
00000190: 7c89 ce3c baa4 953c 0eee 203a a8f3 19bd
000001a0: 4843 a2bc bec2 1a3d 3bdc 19bd 57f8 3f3d
000001b0: 2d33 acbc b0a0 2abc 785a 933a c33e 273b
000001c0: 9aeb a73c 9d8c 18bc b581 adbc 8066 47bd
000001d0: 0cab 1e3d b5c2 c2bc bca7 2abd 6308 26bd
000001e0: 391a 00bd 9b1e 31bd 243b 623c 72a8 b5bc
000001f0: 5d39 27bd aecb 14bd a9e6 fc3c cdc5 0bbd
00000200: 6216 89bc efa0 39bd e4fc 533b fe6c ea3c
00000210: 8203 243d 1b06 2f3d 0a47 c4bc c2d1 833c
00000220: cf57 833c 7d63 d43c 82e8 1f3b e879 12bd
00000230: c6f7 47bd 40ae d93c 8aa3 e83c 7e15 373d
00000240: b197 d23b e2c6 8b3c b139 41bd 1bdc 1f3d
00000250: 1bc6 133d 8ead 50bd c774 ed3c 2f74 1dbd
00000260: 4b3c aebc 7ed5 3fbc f533 bfbb 51fe 003d
00000270: 1ca3 233b d09e 01bd 39b2 b2bc 2ed8 08bd
00000280: 5e0b 3abd 8966 a93b d9b4 2e3d de09 05bd
00000290: 36bb df3c 1217 05bd c5ad 2bbd 1b36 02bd
000002a0: 4b17 e23c 39cb 233a 6fe2 453b da22 d9bc
000002b0: 6b03 aa3c c850 3f3d 9677 853c 721f b13b
000002c0: a015 30bb e5d9 b6bc 2c3a 213d 40a6 d3bc
000002d0: d767 82bb 1f65 35bd 2ad7 4abd 1177 a5bc
000002e0: 25e7 cabc 5f62 31bd 59e9 8cbb e801 31bd
000002f0: 79d7 ad39 bcde 5ebc ca3c 2a3d bcaa bdba
00000300: 2f97 15bd 5ee4 253d 837e 073d 0648 df3c
00000310: 7545 e63c 2bfe ec3c 144e a73c 4a6e 353d
00000320: c192 35bd 4e7b cabc 2df7 33bd e004 33bc
00000330: 7dbd 903c 3edb d1bc 2b74 54bb 408d c2bc
00000340: a876 0a3d fce8 b63b 0e67 cb3c 7d37 863c
00000350: ab58 b9bc 5216 a3b9 e679 db39 baea 143d
00000360: 30ef a4bc f3e7 b1bc 8bdd fa3c 225d 8dbc
00000370: e996 3bbb a4ec cbbc be8b 823c d19f 243d
00000380: 497e 013c 2e1e 4fbd c23f cbbc b490 fdbc
00000390: 0d96 b6bc 18ca 3f3d 52c5 f33b 982b abbc
000003a0: 2f59 333c 0215 1d3c fb32 3cbd fabc 403d
000003b0: 5371 1bbc f03e 4fbd e568 f63b ac93 9c3c
000003c0: 1a2d 3a3d ac3e 2fbc 86c0 12bc 904b 073d
000003d0: ff22 adbb 4d92 e6bb 6dd0 c83c 1a14 a53c
000003e0: aacc e23c 9e5e 3abd fd87 0d3d 0d46 543c
000003f0: d54a 2a3d 388a babc 0d5f 5c3c 13d9 bbbc
-0.048615713 -0.041307807 -0.002167137 0.044563264 -0.03265157 0.029212447 -0.021979341 -0.050923813
0.03614436 0.00089962233 0.04306821 -0.030808752 -0.047208797 0.027834633 0.010434438 -0.043588817
-0.0037199564 0.018760258 -0.027172534 -0.006425096 0.013697446 -0.016777745 -0.0223191 0.019086124
-0.04108626 -0.020445092 -0.037335318 0.041118115 -0.022283254 -0.012140595 -0.019339714 0.021960791
0.013561234 -0.015172917 0.016517323 0.041543342 0.009832771 0.0060624466 -0.021821046 0.022988439
0.04033285 -0.021023812 -0.037217222 0.0321055 -0.03224313 0.045406446 -0.01889788 0.031781185
-0.04161175 0.0020616502 -0.042366005 0.023942418 0.043844417 0.007478938 -0.0509846 0.017690418
-0.041033532 -0.04646837 -0.0036528008 -0.0442115 0.04705012 0.0038366062 0.02011328 -0.025479017
-0.024942743 0.01956686 0.018016636 0.030012188 0.024350265 -0.03181109 -0.038287137 -0.03677778
-0.030718433 0.039581485 0.028048335 -0.037590723 0.03818213 0.03527067 0.0030739433 -0.048133045
0.006967996 0.022828091 -0.0013264031 0.02742806 0.018429162 -0.025067542 -0.031192536 -0.017483238
-0.012797448 -0.0243053 0.041615084 -0.0349875 -0.049908184 -0.03278138 0.032389425 -0.018196216
-0.020402111 -0.010070885 0.029627537 -0.037103992 0.025212042 0.018267024 0.00061389885 -0.037585884
-0.019807473 0.037783377 -0.037563544 0.046867695 -0.021020496 -0.010414287 0.0011242172 0.0025519587
0.020498086 -0.009310869 -0.021180013 -0.048681736 0.03873734 -0.023774484 -0.04166387 -0.040535342
-0.031275008 -0.04324208 0.013808046 -0.022175048 -0.04082619 -0.036327057 0.030871706 -0.034124184
-0.016734306 -0.045319494 0.003234678 0.028616425 0.040042408 0.042730432 -0.023959655 0.016091231
0.016033081 0.025926346 0.002440006 -0.03576079 -0.04882028 0.026572347 0.028398294 0.04469823
0.0064267744 0.017062608 -0.04717416 0.03902827 0.0360776 -0.050946765 0.028986348 -0.03844088
-0.021268984 -0.011708615 -0.005835051 0.031492535 0.0024969047 -0.031645596 -0.021813499 -0.03340929
-0.045420997 0.005169694 0.04265294 -0.032480113 0.027310949 -0.032492705 -0.041913766 -0.03178988
0.027598998 0.0006248239 0.003019478 -0.026505876 0.020753583 0.0467079 0.016292375 0.00540536
-0.0026868358 -0.022320697 0.039362118 -0.02583611 -0.003979664 -0.04428589 -0.049521603 -0.020198377
-0.024768421 -0.043306705 -0.004300278 -0.04321471 0.0003315767 -0.013602909 0.04156188 -0.0014470438
-0.036521133 0.04050099 0.033079635 0.027256023 0.028109292 0.02892979 0.020422973 0.044294633
-0.04432941 -0.024717 -0.043936897 -0.010926455 0.01766848 -0.025617238 -0.0032417874 -0.023748994
0.033804566 0.005581973 0.024829414 0.01638388 -0.022625288 -0.00031106413 0.00041861756 0.036356665
-0.020133585 -0.021717047 0.030623218 -0.017256323 -0.0028623885 -0.024893112 0.015935775 0.040191475
0.007903644 -0.05056589 -0.024810676 -0.030952789 -0.022288347 0.04682359 0.007439294 -0.02089481
0.010946556 0.009587528 -0.045947056 0.047055222 -0.009487468 -0.05059713 0.0075198286 0.019113384
0.04545317 -0.0106960945 -0.008957034 0.033031046 -0.005283713 -0.0070364834 0.024513448 0.020151187
0.027685482 -0.04550039 0.034553517 0.0129561545 0.04157527 -0.022770986 0.013450396 -0.022930657

model.3.bias f4 [64]
00000000: 2257 a3ba 17d1 823c 57f7 913c 3b49 b8bc
00000010: d1bc 103d fd37 f8bc dd1a 1abc 34c8 dbbc
00000020: 5116 dc3b 0562 b0bb 56f4 efbc 9c7a 343c
00000030: eddc bebc 9f04 3abd 16df 6ebc f0d1 ad3c
00000040: 520b 1c3d 91a4 4f3c 512b fdbc 0a51 82bc
00000050: 5300 cd3c c37e 523b a6fa c63c 70a5 8c3c
00000060: d49a 34bc 86df 023d d944 44bd f638 913c
00000070: a9a1 98bc 4531 1ebd 8e2b ceba d994 953b
00000080: 4841 023d 5e31 0dbd 073a 893b 5827 dfbc
00000090: f088 0bbd 3576 76bc 370e 2d3c ac28 2d3c
000000a0: f831 b1ba 9d5c 063c f5de 7abc f479 4bbd
000000b0: e097 8a3d 7012 bcbc c0a5 363d abae b23c
000000c0: 5314 e7bc 4194 3bbd 9891 163d 2af1 dd3b
000000d0: e402 4e3d aa4a 57bd 546d 393d c4b5 1b3c
000000e0: 8ec2 503c 6f01 13bc 72e3 b63c 27f3 3c3d
000000f0: 0b31 01bd c8f0 7dbc ccf1 e2bc c962 4fbd
-0.0012461881 0.015968842 0.017818136 -0.022495857 0.03533632 -0.030300135 -0.009405819 -0.026828863
0.0067165275 -0.0053827786 -0.029291313 0.0110155605 -0.023298705 -0.045414563 -0.014579555 0.02121827
0.038096733 0.012673513 -0.030904444 -0.015907783 0.025024569 0.0032119013 0.02428944 0.01716873
-0.011023242 0.03195145 -0.04791722 0.017727356 -0.018631773 -0.038621206 -0.0015729533 0.004564863
0.03180054 -0.03447091 0.0041878256 -0.02724044 -0.03406614 -0.015042831 0.010562471 0.010568779
-0.001351892 0.008200792 -0.015311946 -0.04967685 0.06767249 -0.02295801 0.044591665 0.021811804
-0.028207934 -0.045795683 0.036759943 0.0067731338 0.050295725 -0.05256144 0.04527028 0.0095037855
0.012741698 -0.00897251 0.022325251 0.046130326 -0.03154091 -0.015499301 -0.027703188 -0.05063132

model.7.weight f4 [1, 576]
00000000: a69c 3d3c b6d0 c13c 0ee7 12bd dd14 21bc
00000010: 90dd 11bd 84ae f23b 743e f93c a060 0b3d
00000020: 32a5 a43c 387b f0bb cb1a 253c 1a56 e93c
00000030: ced6 25bd fd20 07bb a97a 923c cb65 48bc
00000040: bc13 e7bc c637 b03c 0ab3 10bd 2dbb 34bc
00000050: 4f18 4ebd 46f1 0cbd 4a65 bcbc c4d2 4ebd
00000060: bb59 cfbc bbff 36bd a206 75bb c81b 69bc
00000070: 3f0b 31bd 0120 35bd 9c10 16bd 6af3 a43c
00000080: cd31 40bd 0104 92bc d2a7 49bd 2c61 e13b
00000090: 2e68 bcbc de79 c03c 60a2 67bd 991c 2fbd
000000a0: e65b 453b fa91 0a39 2cd0 35bd fad5 28bd
000000b0: 01e9 77bd 5ea7 94bd e0f8 07bd 4c98 88bd
000000c0: 725f 1cbd 73f2 5fbd 9805 59bd 482d e4bc
000000d0: 7eab 66bd c595 21bd 05e9 fb3b 5a06 f8bc
000000e0: e891 163d 0c75 463d f96f 213c ff25 4f3c
000000f0: 9b2a cf3c 5a8a debc b302 ed3c 1076 1ebd
00000100: 8b9a 5bbd c756 3fbd 0089 13bd 774d d63b
00000110: 479f 1cbd 6c6e 3bbc 339a c7bb eb74 1e3c
00000120: 58ff 3cbb a437 053c 6bad 083d 51ac b7bc
00000130: 6227 633c c410 f0bc 28f1 503c 9347 aabc
00000140: 2a45 13bd 2640 c1bc 73ce 883c 1864 00bd
00000150: 11f7 0c3d a480 87bc 365b ad3c ed71 0e3d
00000160: 1c34 333d 2fd1 e63c 51a3 50bd 1a4c 15bd
00000170: 13d5 06bd 59ce e8bb b079 12bd fa71 a4bb
00000180: 0c39 95bc ae93 2cbd f255 0abd dc38 bcbc
00000190: b2b2 383d 65be 493d 828f 0d3d a6ea 2f3d
000001a0: c9da 473d c5a7 b43c bdff 493d dd2a 9abb
000001b0: c07e 4abd cc43 23bd a4d6 01bd c078 0abd
000001c0: aeca d4bc 8c74 09bc 4191 18bc c145 2dbc
000001d0: fd25 c8bc 3041 313c 9e47 2e3a f6ce 353d
000001e0: ff04 9e3c c95f 253d 177c 7b3d 5476 a83c
000001f0: ff0f 8b3b 74b8 213d e373 b13c 64fa 04bc
00000200: 7a3a c3bc b694 9ebc 39aa d13c 3140 4f3d
00000210: 95ca 843c 5db8 64bb 4b80 373d 5e89 82bc
00000220: 31c0 f23c e4e5 3d3d 4695 8bbb 2002 853c
00000230: e30b 833c 4a7f 02bd e34b 083d 6954 1b3b
00000240: 4c15 4c3c ace0 2dbd 0fed 4dbc a7f9 e1bc
00000250: 2cd6 033c e0f9 eebc d5e4 57bc 7252 eebc
00000260: 67e4 02bc 8528 66bd a011 54bb 10de 88bc
00000270: a05f 07bd 18e2 673b dd0b b7bb 2018 a4bc
00000280: 7b2c 28bd fc5b e9bc 5005 653c 8182 0bbd
00000290: bda9 7bbd 75cc 473c 054f fabc 80e2 17bd
000002a0: 3d25 1bbc d2e0 18bd 5452 54bd 6ec2 b43c
000002b0: 220e 5d3c f025 413d 002d 42bb 9768 06bd
000002c0: 8f9b a2bc 6c02 983c c45e 243d add5 393d
000002d0: a964 ba3c b6a3 a43c 3282 ca3c a714 323d
000002e0: 522b 79bc df2e 01bc 5cc9 a93b 3a69 f83b
000002f0: 2c02 893c 4bcd 423c 342d f3bc 3be7 14bd
00000300: b1e6 24bb 6177 37bd c2c0 c9bc 1075 1ebd
00000310: c31c 3dbc 9e96 6dbd b3d3 a0bb 5a8f 0dbc
00000320: 9d64 8d3b 5088 31bb 2b48 6ebb 90d0 42bd
00000330: 3aba d5bc c3e2 27bd feb5 f8bc af41 2d3c
00000340: 7526 77bc 5648 2ebc 8a02 183d bc92 6c3a
00000350: 6bad ac3c 2df0 e73c 7c03 00bd 5ab5 5b3c
00000360: 3906 8abd 518a 79bb aaeb 263c dd41 9ebc
00000370: 9c84 fbbc 7489 1bbd 38dd fbbc 492b a73c
00000380: d99d 66bd 05d6 fdbc c521 323c ab81 94bb
00000390: b03d fbbc bbbf 83bc 24e8 37bc 52ee 4ebc
000003a0: e776 eebc d9a1 10bd b3ee d1bc 3927 663c
000003b0: 4e5c 323d bff3 123d be35 c2bc 48b3 9fbc
000003c0: 97ad 2b3d 3672 193d 1b81 74bc e12a 86bd
000003d0: 75db 96bc a27f 89bc 0938 4dbd 8509 37bd
000003e0: 88e1 593b 797e 70bd 6608 04bd cbf6 4dbd
000003f0: 0e20 8fbd 674c f5bc 4a22 f3bd 98fc c4bc
0.011572992 0.023659091 -0.035864882 -0.009831634 -0.03561169 0.007406058 0.030425288 0.034027696
0.020098303 -0.0073389076 0.010077189 0.02848344 -0.040488057 -0.0020619028 0.017880755 -0.012231301
-0.028207652 0.02151097 -0.035326995 -0.011030954 -0.05031615 -0.034409784 -0.022997517 -0.05049397
-0.025311342 -0.044677477 -0.0037387987 -0.014227815 -0.043223616 -0.044219974 -0.036636934 0.0201356
-0.046922494 -0.017824175 -0.04923231 0.006878039 -0.022998895 0.02349561 -0.056551337 -0.042751882
0.003011459 0.00013215086 -0.04438798 -0.04121969 -0.060524944 -0.07258485 -0.03319633 -0.06669673
-0.03817696 -0.054674577 -0.05298385 -0.027853623 -0.05631589 -0.039449472 0.00768769 -0.030276466
0.03676024 0.04845147 0.0098533565 0.012643336 0.02528887 -0.02716558 0.028931951 -0.038686812
-0.05361418 -0.046713617 -0.036019325 0.0065399962 -0.038237836 -0.011439901 -0.00609138 0.00967143
-0.002883872 0.008130942 0.03336851 -0.022421034 0.01386437 -0.02930487 0.012752809 -0.020786082
-0.035954632 -0.023590159 0.016700005 -0.031345457 0.03441531 -0.016540833 0.021161657 0.034776617
0.043750867 0.028175918 -0.050937 -0.03644953 -0.032918047 -0.0071046767 -0.03576058 -0.00501847
-0.018215679 -0.042133026 -0.03377337 -0.022976331 0.045092292 0.04925384 0.034560688 0.042948388
0.048792634 0.022052655 0.049316157 -0.0047048167 -0.049437284 -0.039859578 -0.031698838 -0.033806562
-0.025975551 -0.008389603 -0.009311975 -0.010575713 -0.024432177 0.010818765 0.0006648245 0.044386826
0.019289492 0.04037455 0.06139764 0.020564236 0.0042438502 0.03948255 0.021661704 -0.008116338
-0.023831595 -0.01935802 0.025593864 0.050598327 0.01620988 -0.0034899928 0.044800084 -0.015934642
0.02963266 0.04636182 -0.004259738 0.016236365 0.015996879 -0.031859674 0.033275496 0.0023701435
0.012456249 -0.042450592 -0.012568726 -0.027584864 0.008046668 -0.029171884 -0.013177116 -0.029092047
-0.007989026 -0.056190986 -0.0032359138 -0.01670745 -0.03305018 0.0035382565 -0.005586131 -0.020031035
-0.041058045 -0.028486244 0.013978317 -0.034060005 -0.061441172 0.012194742 -0.030555258 -0.03708124
-0.0094693275 -0.03732378 -0.051836327 0.022065368 0.013492139 0.04715532 -0.0029628873 -0.03281459
-0.019849567 0.018555842 0.040129438 0.045369793 0.022753077 0.020097595 0.024720285 0.043476727
-0.015208082 -0.00788471 0.0051814746 0.0075809034 0.016724668 0.011889766 -0.02968464 -0.03635333
-0.0025161917 -0.044791583 -0.024628047 -0.03868586 -0.011542502 -0.058004968 -0.004908049 -0.008640135
0.0043149726 -0.0027089305 -0.0036358933 -0.047562182 -0.026089776 -0.04098774 -0.030360218 0.010574742
-0.015084852 -0.010637363 0.037111796 0.00090245507 0.021078786 0.028312767 -0.031253323 0.013409937
-0.06739468 -0.0038076828 0.010188023 -0.019318515 -0.030702882 -0.037972882 -0.030745134 0.020406382
-0.05630288 -0.030985842 0.010872309 -0.004532059 -0.030669063 -0.016082635 -0.01122478 -0.012630062
-0.029109431 -0.0353106 -0.025626516 0.014047437 0.04354506 0.035876986 -0.023707267 -0.019494668
0.041913595 0.037462436 -0.014923359 -0.06551147 -0.018415192 -0.016784493 -0.050102267 -0.044686813
0.0033246 -0.058714364 -0.032234572 -0.05028419 -0.06988536 -0.029943658 -0.118717745 -0.024046227

exp_avg f4 [16, 3, 9, 9]
00000000: 311b 073a 9e50 073a 87bc 053a 255d 033a
00000010: 3668 013a 1c04 023a 5fe2 013a 6ced fe39
00000020: 39f3 fb39 fe90 063a 8716 083a a586 063a
00000030: 8d6c 043a 07f0 023a cd5c 023a 2def 023a
00000040: 84ae 013a 56be 003a c5f0 063a 32cf 083a
00000050: 651a 093a a149 073a fde5 043a 8740 033a
00000060: 908d 043a c724 063a 964b 053a daf0 073a
00000070: 00b4 083a 460d 0a3a a7b6 083a 2fe4 053a
00000080: 0369 033a 906e 043a f3d4 063a 739f 053a
00000090: 2ed2 0b3a 19b2 0a3a 285e 0a3a d266 093a
000000a0: 9580 073a 3d3d 063a 622c 053a 0541 043a
000000b0: 664f 033a 52e1 0b3a 5d52 0b3a d47e 083a
000000c0: 80fc 063a fea9 053a c647 063a 46d7 043a
000000d0: e649 013a 6c02 003a 292d 093a 5f90 093a
000000e0: 1975 083a 1317 073a 2b17 063a 7ec8 043a
000000f0: aac7 033a 7996 023a 1ce1 013a 6a1a 073a
00000100: 135c 083a ee62 093a c64d 083a 60ac 063a
00000110: f2b7 043a 11b4 043a 7913 063a e57c 053a
00000120: 5930 063a 7944 073a f571 083a 1dc2 073a
00000130: 0e8e 053a 49bb 033a c829 043a e0e6 053a
00000140: 1f1d 053a 3cbd 7f39 83e8 7c39 2773 7139
00000150: 8bfc 6039 045d 5339 23b4 5039 2f03 4b39
00000160: a549 3c39 6970 3039 da0c 7d39 f8e1 7f39
00000170: e39d 7439 442d 6539 dc41 5939 8bbf 5139
00000180: 43d8 4e39 0bf9 4439 418b 3b39 4db3 7f39
00000190: 709a 8139 fb8e 7f39 6624 7239 9aab 6239
000001a0: 2bad 5639 3637 5639 32ef 5739 ec74 4f39
000001b0: 9d76 8339 1aa5 8239 b9cb 8239 35fb 7a39
000001c0: fd29 6a39 bb9f 5a39 70c5 5839 0734 5d39
000001d0: a9e1 5339 3ee5 8c39 fd37 8839 ad19 8539
000001e0: de6c 8039 80fa 7339 bf99 6939 673b 5f39
000001f0: 6f5d 5639 a6f2 4d39 c2d3 8e39 948c 8b39
00000200: 414e 8339 ae46 7a39 ddf5 6f39 8472 6d39
00000210: 37b6 6139 f621 4e39 17c2 4339 b425 8a39
00000220: 10fa 8839 4f6d 8439 e815 7d39 d1cb 7339
00000230: 3dfd 6839 3308 5f39 1e69 5539 3e8b 4d39
00000240: 6d85 8739 b0e0 8739 93b9 8739 9bc5 8239
00000250: 6063 7939 5ec3 6b39 7da7 6539 29cb 6639
00000260: dafb 5f39 99f2 8739 b7e5 8739 01e6 8739
00000270: 850f 8439 fe97 7939 716e 6c39 7d7e 6839
00000280: 8cb9 6a39 a646 6339 dbfd 0b3a 4b7b 0b3a
00000290: 4aeb 083a 834f 053a 4445 023a 9c05 023a
000002a0: 93f9 003a 6ff2 fa39 99bb f539 f397 0b3a
000002b0: 1367 0c3a 3edc 093a 0889 063a 78f1 033a
000002c0: f995 023a 4b26 023a d3a2 ff39 06ac fb39
000002d0: 4d23 0c3a a01e 0d3a 0267 0c3a f477 093a
000002e0: 8b32 063a 45b1 033a d0df 033a e26b 043a
000002f0: 1d8e 023a 6267 0d3a df33 0d3a 038f 0d3a
00000300: 7b38 0b3a c88c 073a d51c 043a 600a 043a
00000310: f35f 053a 334a 033a d5a9 113a 72a0 0f3a
00000320: 0b62 0e3a 725b 0c3a 4790 093a 7256 073a
00000330: 173e 053a e244 033a 1469 013a 454a 123a
00000340: 91e4 103a f00e 0d3a 6068 0a3a 2330 083a
00000350: 1efa 073a c383 053a 1fd6 003a a62e fd39
00000360: 5fce 0f3a 134b 0f3a 5444 0d3a 2fca 0a3a
00000370: 19e2 083a 3fb8 063a 5892 043a dd58 023a
00000380: 94c2 003a 4cf1 0d3a 0133 0e3a ed55 0e3a
00000390: 2f34 0c3a 9ac8 093a dfe3 063a 28aa 053a
000003a0: d920 063a e8ae 043a b476 0d3a 9a9f 0d3a
000003b0: 25e4 0d3a 2240 0c3a 4932 093a 555e 063a
000003c0: 0dc0 053a a485 063a d8f0 043a 19e0 0d3b
000003d0: d6b4 373b d245 393b a7a6 1e3b 0db6 243b
000003e0: 8b82 323b 22c9 323b b72f 553b 2351 683b
000003f0: 2855 1e3b e5c4 483b 04db 543b 866a 3f3b
0.0005153893 0.0005161854 0.000510164 0.0005011133 0.0004936488 0.0004959719 0.00049546914 0.00048623548
0.00048055666 0.00051333 0.0005191345 0.0005131758 0.0005051576 0.00049948733 0.0004972935 0.00049947464
0.00049469643 0.0004911175 0.0005147572 0.0005218863 0.00052300683 0.0005160813 0.00050696713 0.0005006869
0.0005056495 0.00051171746 0.00050848105 0.0005185731 0.00052148104 0.000526626 0.00052152056 0.00051075494
0.00050129014 0.00050518755 0.0005143426 0.0005097307 0.00053337484 0.0005290821 0.00052783126 0.00052414567
0.00051690015 0.00051208196 0.0005080161 0.0005045089 0.00050090847 0.00053360045 0.0005314702 0.0005206887
0.000514932 0.0005098878 0.00051223894 0.00050674786 0.0004931971 0.00048831734 0.00052328646 0.0005247648
0.0005205437 0.00051532796 0.00051151466 0.0005065276 0.00050270057 0.00049815286 0.00049545034 0.00051537773
0.00052017084 0.0005240877 0.00051995774 0.000513738 0.00050628104 0.00050622324 0.0005114596 0.0005092158
0.00051188987 0.00051600445 0.0005204969 0.00051787664 0.0005094715 0.0005025161 0.0005041626 0.00051079504
0.0005077887 0.0002438919 0.0002411921 0.00023026449 0.00021456384 0.00020157179 0.00019903532 0.00019360775
0.00017956512 0.00016826544 0.00024132748 0.00024402875 0.0002332847 0.00021856005 0.00020719267 0.00020003149
0.00019726255 0.00018784792 0.00017885586 0.0002438549 0.00024719862 0.0002437196 0.00023092478 0.00021616966
0.0002047314 0.00020429198 0.00020593105 0.00019784615 0.0002507464 0.00024918542 0.00024947317 0.0002393544
0.00022331621 0.00020849604 0.00020672916 0.00021095584 0.00020206593 0.0002687368 0.00025981656 0.00025386867
0.00024495175 0.00023267604 0.00022277886 0.00021289066 0.00020443437 0.00019640717 0.00027242122 0.00026616885
0.0002504457 0.00023868188 0.00022884407 0.00022644742 0.00021525552 0.00019658342 0.00018668953 0.00026349502
0.00026126252 0.00025258443 0.00024136121 0.00023250213 0.00022219583 0.00021269992 0.00020352422 0.00019602195
0.00025848616 0.00025916612 0.0002588747 0.0002494276 0.0002378351 0.00022484126 0.00021901536 0.00022010192
0.0002136076 0.00025929956 0.00025920357 0.00025920573 0.00025188565 0.00023803112 0.00022547856 0.00022172365
0.000223851 0.00021674726 0.00053402566 0.0005320801 0.0005223049 0.00050853955 0.0004969428 0.00049599423
0.0004920002 0.00047864343 0.00046869813 0.00053250714 0.00053559354 0.0005258954 0.00051321136 0.0005033235
0.0004981454 0.00049648125 0.00048758704 0.00048002618 0.00053458364 0.00053832866 0.00053559255 0.00052440097
0.0005119226 0.00050236686 0.0005030604 0.0005051476 0.0004980283 0.00053941284 0.00053864525 0.00054000336
0.00053108454 0.00051708193 0.00050396967 0.00050369464 0.0005087845 0.000500831 0.0005556618 0.00054789253
0.00054314797 0.00053542026 0.0005247634 0.00051627227 0.00050827995 0.0005007518 0.00049366173 0.0005580525
0.0005527223 0.0005380949 0.00052798353 0.0005195161 0.00051871117 0.00050931814 0.0004914719 0.00048290676
0.0005485769 0.0005466204 0.0005388905 0.000529441 0.00052216795 0.0005139149 0.00050572073 0.0004972348
0.0004911807 0.0005414679 0.00054244703 0.0005429674 0.0005348352 0.0005256027 0.000514565 0.00050989026
0.0005116589 0.00050614635 0.0005396411 0.00054025056 0.00054127193 0.00053501327 0.00052336283 0.0005125751
0.0005102165 0.00051316083 0.0005071289 0.0021648465 0.002803137 0.0028270376 0.002420822 0.0025132925
0.0027238454 0.002728053 0.003252966 0.0035448752 0.0024159644 0.0030634936 0.0032479176 0.002920778

exp_avg_sq f4 [16, 3, 9, 9]
00000000: 5938 1337 327b 1337 7dae 1337 02d5 1337
00000010: 01ac 1337 b7b9 1337 74f2 1337 f90f 1437
00000020: 1047 1437 4332 1337 1760 1337 9cc6 1337
00000030: dae3 1337 dfcc 1337 4fc6 1337 47e1 1337
00000040: 3525 1437 904d 1437 5822 1337 f03b 1337
00000050: 47a1 1337 7abb 1337 43bb 1337 1ec4 1337
00000060: b0ca 1337 9008 1437 ed2d 1437 c72e 1337
00000070: 2241 1337 1478 1337 5ca7 1337 c2b5 1337
00000080: bed3 1337 9ece 1337 85d9 1337 761d 1437
00000090: 7951 1337 1488 1337 939c 1337 19d9 1337
000000a0: 32c9 1337 b8e1 1337 4907 1437 96f8 1337
000000b0: 6b38 1437 3152 1337 179c 1337 7acf 1337
000000c0: 88f2 1337 5dc6 1337 a5e5 1337 8411 1437
000000d0: c81e 1437 e646 1437 0357 1337 1685 1337
000000e0: b4da 1337 afe4 1337 d6e0 1337 12f2 1337
000000f0: b60b 1437 a13d 1437 964d 1437 4050 1337
00000100: 4561 1337 6fbf 1337 edd5 1337 39de 1337
00000110: 2ff3 1337 cafa 1337 6636 1437 7250 1437
00000120: 4c46 1337 533e 1337 0c7e 1337 3eb5 1337
00000130: eeb5 1337 b9d5 1337 33cc 1337 5bf7 1337
00000140: 7f46 1437 494a 6c36 8b3c 6c36 641a 6c36
00000150: f676 6b36 d0a5 6936 3cfe 6736 23b8 6736
00000160: 4374 6736 5404 6736 a06e 6c36 7b1a 6c36
00000170: 9e20 6c36 c27a 6b36 54f6 6936 2b5e 6836
00000180: b9b1 6736 6175 6736 21f6 6636 5908 6c36
00000190: f987 6b36 5592 6b36 8dea 6a36 44a3 6936
000001a0: 342f 6836 ee2f 6736 caf1 6636 f27a 6636
000001b0: 047c 6b36 85e6 6a36 7de5 6a36 d17a 6a36
000001c0: 972d 6936 30c2 6736 07a2 6636 be50 6636
000001d0: ba16 6636 9c4d 6b36 021e 6b36 32ce 6a36
000001e0: b64c 6a36 4dba 6836 a142 6736 62b3 6636
000001f0: 0238 6636 b1a3 6536 8e41 6b36 4962 6b36
00000200: 1a3d 6b36 0c94 6a36 77b6 6836 9b3e 6736
00000210: 27e8 6636 4e75 6636 79bc 6536 d466 6b36
00000220: f843 6b36 a01c 6b36 1c36 6a36 e1ce 6836
00000230: 9f96 6736 6d12 6736 4d9c 6636 f6b2 6536
00000240: c94e 6b36 81d0 6a36 37b3 6a36 59e0 6936
00000250: 62b6 6836 faa5 6736 68d4 6636 357e 6636
00000260: 01c9 6536 f5f9 6a36 f946 6a36 fc3c 6a36
00000270: fbb5 6936 be3a 6836 a13a 6736 0e5f 6636
00000280: 8c3e 6636 9f05 6636 910d 0737 3af6 0637
00000290: 64dd 0637 9e9c 0637 6e1d 0637 d0cf 0537
000002a0: 3bb0 0537 9f8c 0537 2e67 0537 cb09 0737
000002b0: d0e1 0637 d4f5 0637 eeac 0637 e736 0637
000002c0: a1d7 0537 079c 0537 5c9a 0537 6d67 0537
000002d0: 46f5 0637 49b8 0637 a7c2 0637 6d76 0637
000002e0: 5c18 0637 c7d3 0537 1584 0537 0578 0537
000002f0: 0143 0537 45e3 0637 bc9a 0637 4b7b 0637
00000300: 5045 0637 5ff6 0537 bac8 0537 5c71 0537
00000310: b233 0537 761f 0537 f4ed 0637 93c4 0637
00000320: 1b88 0637 b455 0637 cdf1 0537 ffbe 0537
00000330: 368f 0537 803c 0537 4b18 0537 5dda 0637
00000340: c8ca 0637 aab4 0637 a86b 0637 32e7 0537
00000350: fdad 0537 4886 0537 bf55 0537 8918 0537
00000360: d7d3 0637 14b1 0637 5cb8 0637 6f55 0637
00000370: fcf2 0537 30b0 0537 5f78 0537 3765 0537
00000380: 4a11 0537 78d6 0637 5695 0637 4397 0637
00000390: 9e3e 0637 c5ed 0537 20be 0537 e773 0537
000003a0: ba60 0537 9a18 0537 81bf 0637 1964 0637
000003b0: ba4c 0637 fc1a 0637 aabf 0537 6395 0537
000003c0: da40 0537 2221 0537 6915 0537 bc91 a03a
000003d0: 270d a23a ab62 9f3a c2f8 993a 6c7c 973a
000003e0: b20b 983a 44dd 983a 3e6b 9d3a 687e a23a
000003f0: 2bf1 9e3a 5de4 a03a 86eb 9d3a 15a9 983a
8.775002e-06 8.790566e-06 8.802509e-06 8.8114775e-06 8.801931e-06 8.805123e-06 8.818333e-06 8.825206e-06
8.838033e-06 8.773585e-06 8.784255e-06 8.808125e-06 8.814934e-06 8.809583e-06 8.808055e-06 8.814334e-06
8.83015e-06 8.839546e-06 8.769879e-06 8.775838e-06 8.799433e-06 8.805533e-06 8.805483e-06 8.807545e-06
8.809075e-06 8.823481e-06 8.83218e-06 8.772774e-06 8.777048e-06 8.789841e-06 8.800849e-06 8.804202e-06
8.811183e-06 8.80999e-06 8.812528e-06 8.828347e-06 8.780852e-06 8.793566e-06 8.798338e-06 8.81243e-06
8.808727e-06 8.814437e-06 8.823184e-06 8.819761e-06 8.834623e-06 8.7810195e-06 8.798225e-06 8.81019e-06
8.8183515e-06 8.808068e-06 8.815351e-06 8.825566e-06 8.828654e-06 8.837995e-06 8.782142e-06 8.792869e-06
8.812804e-06 8.815127e-06 8.8142315e-06 8.818244e-06 8.824214e-06 8.8358365e-06 8.839552e-06 8.780567e-06
8.78453e-06 8.806454e-06 8.811691e-06 8.813623e-06 8.818503e-06 8.820274e-06 8.834153e-06 8.840218e-06
8.77825e-06 8.776394e-06 8.79123e-06 8.8040815e-06 8.804242e-06 8.811644e-06 8.809427e-06 8.819475e-06
8.837901e-06 3.520998e-06 3.520198e-06 3.5182102e-06 3.5086973e-06 3.4816221e-06 3.4569666e-06 3.4528864e-06
3.4489356e-06 3.4424202e-06 3.5231133e-06 3.5182154e-06 3.5185726e-06 3.5089183e-06 3.4863087e-06 3.4625507e-06
3.452513e-06 3.4490006e-06 3.4415937e-06 3.51716e-06 3.5096875e-06 3.5102905e-06 3.5005244e-06 3.4814739e-06
3.459817e-06 3.444958e-06 3.441341e-06 3.4344234e-06 3.5089915e-06 3.5002897e-06 3.5002297e-06 3.4940206e-06
3.4746242e-06 3.4534714e-06 3.4366983e-06 3.431967e-06 3.42859e-06 3.5062903e-06 3.5035196e-06 3.4988739e-06
3.4913369e-06 3.4679135e-06 3.4460465e-06 3.4377085e-06 3.4305272e-06 3.421894e-06 3.5055887e-06 3.5074938e-06
3.5053295e-06 3.4954892e-06 3.4676902e-06 3.4458124e-06 3.4407801e-06 3.434095e-06 3.4233365e-06 3.5077583e-06
3.5057292e-06 3.503439e-06 3.4900213e-06 3.4691113e-06 3.4509355e-06 3.4432408e-06 3.436365e-06 3.4227828e-06
3.5063588e-06 3.4990082e-06 3.4973034e-06 3.4850293e-06 3.4676855e-06 3.4518293e-06 3.4396307e-06 3.4346133e-06
3.4240659e-06 3.5014211e-06 3.4910029e-06 3.4904215e-06 3.4825632e-06 3.4604886e-06 3.445581e-06 3.4328e-06
3.4309078e-06 3.4275943e-06 8.049786e-06 8.0443515e-06 8.038569e-06 8.023488e-06 7.9938745e-06 7.975803e-06
7.96845e-06 7.960159e-06 7.951441e-06 8.048907e-06 8.0395985e-06 8.044259e-06 8.027286e-06 7.999805e-06
7.977623e-06 7.963746e-06 7.963357e-06 7.951498e-06 8.04413e-06 8.02993e-06 8.032343e-06 8.014596e-06
7.992694e-06 7.976726e-06 7.9581705e-06 7.955362e-06 7.943018e-06 8.039938e-06 8.023049e-06 8.015729e-06
8.0031605e-06 7.9847805e-06 7.974153e-06 7.953811e-06 7.939454e-06 7.934743e-06 8.042425e-06 8.032791e-06
8.018712e-06 8.006977e-06 7.983716e-06 7.9718875e-06 7.960762e-06 7.941504e-06 7.933074e-06 8.037864e-06
8.034236e-06 8.0290865e-06 8.012088e-06 7.981247e-06 7.967928e-06 7.9586825e-06 7.947382e-06 7.93313e-06
8.036345e-06 8.028252e-06 8.029947e-06 8.006914e-06 7.983992e-06 7.96844e-06 7.955444e-06 7.950984e-06
7.931443e-06 8.036957e-06 8.021792e-06 8.022241e-06 8.001602e-06 7.982778e-06 7.971685e-06 7.954403e-06
7.949939e-06 7.933146e-06 8.03161e-06 8.010328e-06 8.004887e-06 7.993305e-06 7.972043e-06 7.9622e-06
7.942517e-06 7.935132e-06 7.932403e-06 0.0012250463 0.0012363539 0.0012160143 0.0011747109 0.0011557466
0.0011600165 0.0011662622 0.001201011 0.0012397291 0.0012126317 0.0012275089 0.0012048341 0.001164707

exp_avg f4 [16]
00000000: d33b 1f3a a935 73bc 23d6 e1b9 9677 d9ba
00000010: 5721 123a 575f a23b 78a4 183c 42eb 97bc
00000020: e2cb 2abb 19eb 2d3c 3338 a33b 5f4d 2ebb
00000030: 5cdc 90bc d39b 7a3b fea1 1cbc a4a0 7c3b
0.0006074283 -0.014844337 -0.00043074889 -0.0016591426 0.0005574426 0.004955213 0.009316556 -0.018544797
-0.0026061465 0.010615134 0.0049810647 -0.002659641 -0.0176832 0.003823985 -0.009560106 0.0038547898

exp_avg_sq f4 [16]
00000000: 8177 6d36 b1d3 8b3a 27af 4b36 c711 a938
00000010: 2d7d 8a36 daf2 4d3a d039 563a a053 6f3a
00000020: 346c 3e39 cecb 693a b187 183a e09c 7439
00000030: 4411 713a abef a139 2ebc c93a 31c2 e139
3.5385312e-06 0.0010667947 3.035131e-06 8.061859e-05 4.127293e-06 0.0007856317 0.0008172067 0.00091295876
0.00018160121 0.0008918614 0.00058185594 0.00023328094 0.0009195993 0.0003088688 0.0015391165 0.00043060028

exp_avg f4 [64, 16, 5, 5]
00000000: 1858 f22d e72f d52d b6d1 b62d 3c1f 9e2d
00000010: 1d07 932d d3d1 8f2d 32b5 7f2d ac42 5a2d
00000020: 23f5 432d c53c 412d f962 1c2d d2b3 0c2d
00000030: 290b f62c 5365 f22c ab05 092d 34d1 862c
00000040: 1169 752c 8d30 762c 83e5 982c 2cfd e42c
00000050: 6a4f e52b 071a 002c 9936 422c 3adb a92c
00000060: 32e8 192d 4eda 742e a6a1 772e 3db1 7e2e
00000070: 05eb 872e 4ff9 912e 3eb6 862e ab53 8a2e
00000080: f9f9 8d2e 3595 972e db64 a32e bb05 a22e
00000090: 1971 a92e ee2c af2e 9499 ba2e 608e c92e
000000a0: 39e3 c22e 136a ce2e 5d78 d62e 2555 e42e
000000b0: 40bc f62e 36d7 e82e 8929 f62e 7bb8 ff2e
000000c0: c99c 062f 8399 0f2f a64d 4d2d 872d 252d
000000d0: 0015 002d 7a55 b42c 3bd9 942c f48b d02c
000000e0: f144 9d2c 526e 532c 5a58 0e2c 46d3 f22b
000000f0: 3da2 1f2c 51ba c32b 84ad 7d2b 4e62 dc2a
00000100: ebfd e32a 0ad9 262b e30a 9d2a 0661 9927
00000110: 15d5 2e29 f97e 172b 25f7 af2a 1285 8c29
00000120: 3535 402a 4443 232b bfe8 fa2b 6893 e72d
00000130: e9f6 cb2d 96d6 b72d 4d49 a42d 487d 9f2d
00000140: 200b 912d 0699 862d bd23 7e2d 0733 672d
00000150: d8aa 7c2d f11b 4c2d 1450 4d2d cb97 562d
00000160: 5a19 612d 0414 892d de03 1c2d d8ab 352d
00000170: c4a0 592d 727c 802d 138e ae2d 8729 4a2d
00000180: 8306 752d a6e3 912d d4fb af2d a526 ec2d
00000190: 60ef 932d f935 662d ac68 312d c4e2 0c2d
000001a0: 0770 052d b8d8 102d 5de5 d02c e617 a02c
000001b0: ebea 8a2c f877 952c 1a85 512c 1687 042c
000001c0: dc71 e12b c185 f52b 443d 582c 4932 472a
000001d0: cd5c 242a 0af1 e62a 914b be2b 6261 922c
000001e0: 72ed 0b2a 29a4 e42a 64dd d62b 4aa3 8a2c
000001f0: e40c 1f2d 1a0a 382d 01bb 222d 8df0 112d
00000200: d00e 032d f3fc ea2c 2480 012d 0cbd e72c
00000210: f234 d12c 8ea9 c42c 1a62 b22c d5a9 602c
00000220: 251f 492c d094 422c 1325 352c 18e0 1f2c
00000230: cf39 862b 3928 8b2b 3a34 7d2b fa4c 752b
00000240: 93e2 582b 2f93 c82a f75a bd2a a464 ac2a
00000250: 29f3 b92a 3b91 292b 46ae a62c 2dd6 c32c
00000260: 84d6 f42c 8bb1 112d dabb 232d eba1 e82c
00000270: 6001 fc2c 906c 132d 51da 342d fa57 452d
00000280: 6138 142d d972 262d 5313 3e2d b8fa 532d
00000290: e09a 612d 312f 5b2d 58b3 6a2d 935f 752d
000002a0: ffed 812d fa43 842d 68c3 932d 115e 942d
000002b0: 68b2 932d 7caa 952d 6abc 8e2d 4ea9 fd2d
000002c0: bb81 f92d 9b3f 042e fbc8 1a2e 15d4 3c2e
000002d0: 01a0 1c2e e1e2 232e 4581 2f2e 2a3c 472e
000002e0: 489e 6e2e 01b8 5c2e 2b10 722e 7308 832e
000002f0: 72ec 912e ccba a92e f4cc 9a2e 25d2 ab2e
00000300: 0b42 ba2e d222 cc2e d96b e82e c025 ce2e
00000310: bbe2 e32e 4cfa f42e efe4 032f 18b2 122f
00000320: 7f33 092d 2ceb e52c f0ae ac2c dbaa 922c
00000330: e310 702c 9c30 8e2c ecf1 682c ca81 3f2c
00000340: e471 282c b9a1 0f2c f010 b02b 78b5 a12b
00000350: 3fef 5a2b d07b 632b 7920 b02b 8d1a b928
00000360: 87a5 f326 c654 582a d5db 742b 1e9e 362c
00000370: c787 722a 2afe 212b a262 e12b ef7e 802c
00000380: 9aff 052d f41c 962d e5ef a72d 254b bf2d
00000390: a91b db2d 2c99 f72d 0eac c12d 6c67 cc2d
000003a0: 5867 e02d a7c3 f72d aa5a 072e d0d5 e32d
000003b0: b993 ef2d cd3f 002e d1ac 092e b76f 122e
000003c0: fbdd 082e c32f 0e2e 7935 162e 81ca 1d2e
000003d0: c9ef 212e 245d 252e f22b 282e 64de 2e2e
000003e0: 9c2e 302e 271c 2e2e 4c4c 0d2d ec35 e02c
000003f0: 09ce a42c 3747 782c b12a 642c 4107 8a2c
2.7551336e-11 2.423657e-11 2.0784135e-11 1.7976391e-11 1.6715124e-11 1.6350398e-11 1.4535305e-11 1.24066694e-11
1.1138898e-11 1.0984273e-11 8.88955e-12 7.998007e-12 6.9929795e-12 6.889303e-12 7.788807e-12 3.8317353e-12
3.4874918e-12 3.4985654e-12 4.3455808e-12 6.5082575e-12 1.629347e-12 1.8204342e-12 2.7599366e-12 4.827608e-12
8.748601e-12 5.567307e-11 5.630487e-11 5.7910333e-11 6.180837e-11 6.638123e-11 6.125987e-11 6.290376e-11
6.456342e-11 6.8931895e-11 7.4302973e-11 7.367925e-11 7.7053204e-11 7.96606e-11 8.485582e-11 9.1657126e-11
8.8624615e-11 9.386638e-11 9.752974e-11 1.0383364e-10 1.1220225e-10 1.0588368e-10 1.1194163e-10 1.1628828e-10
1.224293e-10 1.3060313e-10 1.1670142e-11 9.389273e-12 7.2806206e-12 5.1253975e-12 4.2305304e-12 5.9272535e-12
4.4698624e-12 3.0046144e-12 2.0228459e-12 1.7253774e-12 2.268532e-12 1.3907297e-12 9.012446e-13 3.9148063e-13
4.049949e-13 5.927625e-13 2.7896357e-13 4.2571224e-15 3.882058e-14 5.3822187e-13 3.1257736e-13 6.240333e-14
1.7071486e-13 5.8002583e-13 1.7828168e-12 2.6327121e-11 2.3188078e-11 2.0899987e-11 1.8677193e-11 1.8131843e-11
1.6489532e-11 1.5301992e-11 1.4446164e-11 1.314216e-11 1.43624765e-11 1.1602262e-11 1.1670682e-11 1.21981964e-11
1.2795398e-11 1.5583985e-11 8.868432e-12 1.0326816e-11 1.2370719e-11 1.460718e-11 1.9844603e-11 1.14915915e-11
1.39280835e-11 1.6585688e-11 2.000703e-11 2.6847255e-11 1.6818269e-11 1.3085971e-11 1.0084527e-11 8.008431e-12
7.58505e-12 8.2335735e-12 5.93718e-12 4.5501268e-12 3.948277e-12 4.248154e-12 2.9774573e-12 1.8833316e-12
1.6018814e-12 1.7445421e-12 3.0729455e-12 1.7692197e-13 1.4598323e-13 4.1023462e-13 1.3521286e-12 4.1603812e-12
1.242806e-13 4.0614845e-13 1.5267063e-12 3.9403246e-12 9.040966e-12 1.0461432e-11 9.250157e-12 8.295709e-12
7.449777e-12 6.678763e-12 7.361254e-12 6.5864033e-12 5.9460154e-12 5.5894794e-12 5.0699557e-12 3.192659e-12
2.8581107e-12 2.7651666e-12 2.5742227e-12 2.2719656e-12 9.537318e-13 9.887708e-13 8.9956135e-13 8.714831e-13
7.705305e-13 3.5629266e-13 3.3636264e-13 3.062317e-13 3.3031328e-13 6.024241e-13 4.737352e-12 5.5660116e-12
6.958713e-12 8.281718e-12 9.307189e-12 6.611813e-12 7.1624234e-12 8.380088e-12 1.0280291e-11 1.1217688e-11
8.425345e-12 9.461509e-12 1.080454e-11 1.2049632e-11 1.2824158e-11 1.2459187e-11 1.3341182e-11 1.3947859e-11
1.4771294e-11 1.503685e-11 1.6798743e-11 1.6867426e-11 1.6791193e-11 1.7015049e-11 1.6227204e-11 2.8837956e-11
2.8365634e-11 3.0069818e-11 3.5194053e-11 4.2934618e-11 3.5612405e-11 3.7263418e-11 3.9905208e-11 4.5300798e-11
5.4255517e-11 5.0185637e-11 5.503879e-11 5.958691e-11 6.635838e-11 7.718412e-11 7.039516e-11 7.813509e-11
8.470032e-11 9.283031e-11 1.0569296e-10 9.374501e-11 1.036304e-10 1.1140297e-10 1.1995714e-10 1.3341894e-10
7.798983e-12 6.5346808e-12 4.907956e-12 4.1685383e-12 3.4115425e-12 4.0412795e-12 3.3103477e-12 2.721478e-12
2.3937458e-12 2.0411296e-12 1.2510253e-12 1.1490106e-12 7.778118e-13 8.0818425e-13 1.2514565e-12 2.055064e-14
1.6906378e-15 1.9214066e-13 8.699129e-13 2.5951528e-12 2.1541025e-13 5.7551414e-13 1.6014588e-12 3.6520713e-12
7.61693e-12 1.7065883e-11 1.9092236e-11 2.1747557e-11 2.4909701e-11 2.8148671e-11 2.2017967e-11 2.3238043e-11
2.5511745e-11 2.8167536e-11 3.0775972e-11 2.5901864e-11 2.7236756e-11 2.9160497e-11 3.1303685e-11 3.329578e-11
3.1119978e-11 3.2329483e-11 3.4153545e-11 3.5877527e-11 3.6820134e-11 3.7599382e-11 3.823781e-11 3.9760542e-11
4.0059164e-11 3.9588024e-11 8.031863e-12 6.3724494e-12 4.684035e-12 3.5282452e-12 3.2424447e-12 3.9230012e-12

exp_avg_sq f4 [64, 16, 5, 5]
00000000: 04fa 8a2d 0e94 622d 4884 412d e802 372d
00000010: 7a61 402d 6ede 632d c7ce 352d 8a68 172d
00000020: bdba 0b2d cc2b 102d 251e 4d2d 91ec 202d
00000030: 0144 072d 35d3 f92c 7d9c ff2c 1cdd 4b2d
00000040: 691d 202d a615 072d 9eb2 f82c d9d1 fd2c
00000050: 893b 592d a66a 2e2d 4348 162d 4b5e 0c2d
00000060: f39a 112d b0c3 c02f 58a9 c62f 3767 c82f
00000070: 997a c62f 7f54 c22f 62c9 cb2f 3192 d22f
00000080: 10aa d42f 0588 d22f a110 cd2f 8e72 d52f
00000090: 0088 dc2f 9fdd de2f 323c dc2f c491 d52f
000000a0: 9c1f dc2f 516a e32f 7ae6 e52f 45d3 e22f
000000b0: 8cd8 db2f 400e de2f bc36 e52f 973d e72f
000000c0: 2347 e42f 646f dd2f f8bd f82d efcd d52d
000000d0: cb02 c32d 1881 be2d c49d c32d 7a91 e12d
000000e0: 188f bf2d 2978 ad2d 613f a82d 1415 ac2d
000000f0: ceb4 d72d abc7 b52d 8702 a62d 1500 a02d
00000100: 6a47 a22d faf1 da2d 412c ba2d b514 aa2d
00000110: 3ce2 a32d bff6 a32d 8763 e92d 3b25 ca2d
00000120: 9e2c ba2d 8e58 b32d dc57 b52d 45f7 9e2f
00000130: eada 9c2f d8bf 9a2f 93ca 982f 111a 972f
00000140: 0200 9c2f e0fe 992f 1ce9 972f ecdf 952f
00000150: 3906 942f e78c 992f 257a 972f ab75 952f
00000160: f26a 932f 13b5 912f d126 972f 57e1 942f
00000170: 0531 932f c542 912f eb93 8f2f e9be 942f
00000180: 1962 922f b7ee 902f b608 8f2f 483a 8d2f
00000190: e281 f52c cb3a cb2c bf9c c02c 7cb6 cb2c
000001a0: b286 f32c 86fc be2c 1ff5 9c2c 71a7 932c
000001b0: 7af7 972c 6131 b42c 17dd a52c 99a3 892c
000001c0: 0620 822c c2c3 872c 3204 a02c 412f a92c
000001d0: 8df9 8b2c 8231 832c da71 892c 0097 a12c
000001e0: b4ea bb2c 7ce3 a02c 7918 992c 721e a22c
000001f0: ccf9 bf2c d6e7 d12e b1c6 cc2e 19b9 ca2e
00000200: f1f3 c92e ba47 cc2e f8c7 d02e 0df9 ca2e
00000210: d096 c82e d701 c82e 64d8 c82e 5797 d12e
00000220: 3d09 cb2e 67f0 c72e b49e c62e 3a71 c62e
00000230: 3191 d32e c74b cd2e b5b0 c92e 506d c72e
00000240: ac4e c62e 3b71 d72e efac d12e 6a8f ce2e
00000250: 95b2 cc2e 892c cb2e ef3f 4e2c d87f 3f2c
00000260: 4d92 3a2c efa0 362c 9bc5 322c aeb6 4d2c
00000270: 8e3a 402c 56ad 3a2c 4bdf 352c 6e91 342c
00000280: 4a9e 512c 7886 422c d80c 3c2c 987a 372c
00000290: f99b 342c 6169 5c2c 359b 4b2c c355 462c
000002a0: cfe9 432c 7374 3f2c 3d18 722c 783c 642c
000002b0: 30ec 602c 4fdb 5a2c 0dfa 562c 4356 992f
000002c0: b050 a12f 6dab a52f 6f5f a52f 8ab2 a22f
000002d0: b934 a42f c378 ad2f 4bab b22f 23c0 b22f
000002e0: 10bb ae2f 67f4 ae2f e2eb b82f a032 be2f
000002f0: eb30 be2f d46f b92f ab14 b72f f30b c22f
00000300: 0391 c72f 4418 c72f 0026 c22f eec3 ba2f
00000310: e959 c52f c3b7 ca2f 4b78 ca2f 80e9 c42f
00000320: 7b54 bf2a e6cf 982a 5bac 9a2a 4d85 c72a
00000330: b838 2e2b 1b3d 832a 873a 5f2a 302d 4f2a
00000340: dd80 932a ddf0 fb2a d8a1 632a 37fa 4d2a
00000350: 3451 492a 3984 902a 71a1 fb2a 43a6 622a
00000360: 9d6a 4e2a 7fa8 732a b961 ad2a 1cfb 102b
00000370: 73ec bb2a 2728 c12a 9638 f62a 7dba 272b
00000380: 070f 792b 1346 2c2c 15bc 222c ebb8 272c
00000390: e4ae 302c 606f 3e2c de83 302c 7641 282c
000003a0: cd80 312c e350 3e2c f47f 4e2c 0a78 3e2c
000003b0: d28c 362c 3dce 3f2c 7156 4c2c 4df6 5d2c
000003c0: 47fc 532c 7830 512c 4ee8 5a2c 2e91 652c
000003d0: 8a70 772c 03c6 802c bea6 812c 7c2e 882c
000003e0: 746d 8f2c 22e3 9a2c 3771 d42e 30df d92e
000003f0: 1279 e02e fe6a e62e 4be7 ec2e ed9b d52e
1.5799813e-11 1.2879487e-11 1.1000152e-11 1.0402991e-11 1.09355806e-11 1.2952845e-11 1.0334573e-11 8.606569e-12
7.9426994e-12 8.195177e-12 1.1659594e-11 9.147475e-12 7.6889614e-12 7.1004543e-12 7.2649096e-12 1.158831e-11
9.101477e-12 7.6786685e-12 7.0684144e-12 7.2139903e-12 1.2348241e-11 9.914436e-12 8.542558e-12 7.979016e-12
8.276701e-12 3.506364e-10 3.6136316e-10 3.6453127e-10 3.61031e-10 3.5348433e-10 3.7068576e-10 3.8302653e-10
3.8683412e-10 3.8295425e-10 3.7301098e-10 3.882587e-10 4.01144e-10 4.0539036e-10 4.0060538e-10 3.8848047e-10
4.0040227e-10 4.1366602e-10 4.181862e-10 4.1259277e-10 3.9989734e-10 4.039169e-10 4.1693748e-10 4.2062417e-10
4.1523504e-10 4.0278814e-10 2.8278699e-11 2.430675e-11 2.2170174e-11 2.1657828e-11 2.2238995e-11 2.5644143e-11
2.1777732e-11 1.9721185e-11 1.9127535e-11 1.9563497e-11 2.4522964e-11 2.0665988e-11 1.8873137e-11 1.818993e-11
1.8448982e-11 2.489119e-11 2.1165404e-11 1.9335958e-11 1.8631423e-11 1.8640532e-11 2.6533232e-11 2.2981275e-11
2.1165566e-11 2.038927e-11 2.0616335e-11 2.8915728e-10 2.8531782e-10 2.814875e-10 2.7792577e-10 2.748526e-10
2.837624e-10 2.8011637e-10 2.7632374e-10 2.7262048e-10 2.6925465e-10 2.7930655e-10 2.755353e-10 2.718655e-10
2.6815133e-10 2.6504007e-10 2.749432e-10 2.7081157e-10 2.6773975e-10 2.642279e-10 2.611665e-10 2.7056693e-10
2.6626948e-10 2.6363065e-10 2.6017738e-10 2.5689162e-10 6.9777387e-12 5.7761343e-12 5.4743705e-12 5.789867e-12
6.9214296e-12 5.4281605e-12 4.4610006e-12 4.196581e-12 4.3191535e-12 5.12139e-12 4.714128e-12 3.911937e-12
3.6983775e-12 3.8586643e-12 4.5479393e-12 4.808515e-12 3.9783233e-12 3.7287404e-12 3.9064143e-12 4.5926596e-12
5.340917e-12 4.5727293e-12 4.3512386e-12 4.607697e-12 5.4562795e-12 9.545402e-11 9.3121406e-11 9.2187764e-11
9.1837545e-11 9.289587e-11 9.4942665e-11 9.230137e-11 9.121737e-11 9.095274e-11 9.133386e-11 9.531103e-11
9.233012e-11 9.092176e-11 9.032189e-11 9.0241106e-11 9.62096e-11 9.3357815e-11 9.171811e-11 9.06889e-11
9.0179725e-11 9.797182e-11 9.534939e-11 9.393271e-11 9.3085685e-11 9.239282e-11 2.930985e-12 2.72137e-12
2.6513403e-12 2.5953092e-12 2.5405014e-12 2.923366e-12 2.7317345e-12 2.652841e-12 2.58456e-12 2.5660268e-12
2.9788554e-12 2.7643703e-12 2.6723537e-12 2.6073917e-12 2.566612e-12 3.1322377e-12 2.8934192e-12 2.81851e-12
2.7840957e-12 2.7207375e-12 3.4403723e-12 3.2434316e-12 3.1963425e-12 3.1101404e-12 3.0550035e-12 2.789183e-10
2.934306e-10 3.013513e-10 3.0081135e-10 2.9594488e-10 2.9868888e-10 3.1554323e-10 3.2499722e-10 3.2514533e-10
3.1783332e-10 3.1824074e-10 3.363701e-10 3.459677e-10 3.4595557e-10 3.3730763e-10 3.3302192e-10 3.5296885e-10
3.6300926e-10 3.621513e-10 3.5315395e-10 3.397242e-10 3.5897976e-10 3.6874157e-10 3.682906e-10 3.5818104e-10
3.3987036e-13 2.7144882e-13 2.747549e-13 3.5441997e-13 6.189593e-13 2.3312675e-13 1.9826685e-13 1.8400971e-13
2.6201862e-13 4.475369e-13 2.0217801e-13 1.8294468e-13 1.7880559e-13 2.5671286e-13 4.469858e-13 2.0130516e-13
1.8333464e-13 2.1641194e-13 3.0798782e-13 5.150756e-13 3.3381943e-13 3.4311548e-13 4.3737643e-13 5.9589123e-13
8.8483425e-13 2.448157e-12 2.3125991e-12 2.3834777e-12 2.5108188e-12 2.706245e-12 2.5084305e-12 2.3910574e-12
2.5224712e-12 2.7045525e-12 2.934539e-12 2.706726e-12 2.5941927e-12 2.7257218e-12 2.9038128e-12 3.1542713e-12
3.0124946e-12 2.9727592e-12 3.1108618e-12 3.2623448e-12 3.5163283e-12 3.6599625e-12 3.6849126e-12 3.8705133e-12
4.076456e-12 4.40216e-12 9.660755e-11 9.9076636e-11 1.0207847e-10 1.0478195e-10 1.07731234e-10 9.7138166e-11
